models/model/best_network_run_37.pt (torch, 334691 bytes, 81 tensors)

conv1.lin_key.weight f8 [38, 12]
00000000: 3f14 ce0e 9df6 bd3f bd5f fff8 a8a4 7c3f
00000010: 6d2e 7316 c5de 8dbf 7328 3df0 d86a 993f
00000020: 4d18 e77c c098 7fbf a896 e259 7d3c a63f
00000030: a5ba 2914 f531 c83f 0a24 c840 1cbc c9bf
00000040: f74c 3186 adbd c8bf e701 c25a 9bf5 bcbf
00000050: a9bb 9c81 d5a7 cabf 4eb8 6895 5034 c03f
00000060: 5db4 4364 02fd b43f 8a80 16ad e30f aa3f
00000070: c597 e159 70b9 953f a353 ad21 bbe7 88bf
00000080: 3181 9bbf 7094 cdbf 61b1 764d 0416 903f
00000090: 814f 0d2a 1922 a73f 9eb1 f9ca 74f1 d33f
000000a0: 3a44 b6a0 2e97 d63f 305b e36d ff25 acbf
000000b0: 42e6 4914 f269 d33f ee2e 8b33 7bcc b2bf
000000c0: b67e 6614 d030 ca3f 12a0 3412 3ddf 623f
000000d0: 7593 74ea 7d9c b2bf 09bb 3579 b16d b1bf
000000e0: c01b 6933 7f1d c1bf b332 5772 1da6 c03f
000000f0: 632c 5fbd c556 c2bf 1fbf 64fa 4d1e ba3f
00000100: 23cd c3ac 094b b03f a6f0 2cf7 3f67 c23f
00000110: d535 4897 71b1 c33f ee1c a644 7705 cabf
00000120: a391 80cc 0bae b73f 0173 8641 2ee3 613f
00000130: eb83 256f 6c2c bebf 4f5e 15e1 5395 ba3f
00000140: 8dd2 a044 d343 abbf 611d 8a09 eaf9 cc3f
00000150: 7bf3 6a88 edc3 b13f e6a8 4939 1192 6b3f
00000160: 4e4d 2af6 9307 a43f 1782 fe09 566c b93f
00000170: b766 a898 f014 da3f 30a7 1c75 d05e ac3f
00000180: c9a0 b6d2 89c2 c23f 544c 582d bf84 74bf
00000190: 86e8 3410 ed0e a9bf 2938 615d b492 a8bf
000001a0: 1787 ab95 e584 cebf bd13 e76c cfbb ad3f
000001b0: 3219 c215 cd26 c5bf 5cfb ed87 cfd9 e03f
000001c0: 6525 1bc9 b5aa cf3f 8d45 8343 681b d1bf
000001d0: 7353 ff8d 83d0 c33f fe28 02fc 3b62 d4bf
000001e0: 560f c392 9aba bf3f 9c68 f130 c632 a13f
000001f0: 7e10 2382 a2dd b63f 3634 fdc9 a473 a83f
00000200: dc1c 8ec8 fba7 bdbf 3ee2 79ff ab71 d6bf
00000210: 7a27 f88b 1325 cd3f 1286 c99e a258 b1bf
00000220: aafd 669b 4fff b6bf ea2f 747e 6edd 913f
00000230: 08d3 61ff 933f 96bf 2145 2b65 dd9d da3f
00000240: 0eb2 1577 1382 d2bf 59a4 00d0 1b0b 893f
00000250: 019e 8af0 7471 bc3f 47d4 14b4 2daa c43f
00000260: 3a67 8ff6 9716 ca3f b412 9831 4232 9fbf
00000270: ae01 6067 d846 bc3f cf2f 0eeb 9c2b d1bf
00000280: 9546 5d84 e7f2 a4bf 2033 e675 40ab a1bf
00000290: 99f8 829f 6233 d0bf 1b24 4f39 b606 df3f
000002a0: 7593 48dc 6f49 9b3f fc59 6d4c a528 ad3f
000002b0: e9f6 615b 203a ae3f cf7b efc9 f5a1 abbf
000002c0: 2d67 f52a 17f0 b5bf 4390 629e d010 babf
000002d0: cb16 aec4 dedc c6bf 0cc0 d6c7 c635 b1bf
000002e0: fc5e 6a75 fc33 cdbf c08a 20f5 a258 d33f
000002f0: 9fb7 8e78 f4f0 88bf 119b 9133 09f0 a93f
00000300: 5f2c c312 9f0d b73f 2a16 8d43 109d a63f
00000310: 3178 e97f 0647 b63f 468e fa97 757f b0bf
00000320: 2bb6 9edc f2b2 b3bf ff0b 5e4c cc8a c0bf
00000330: 6cc0 a6fb 5cd9 c8bf 1762 0cb2 4af9 ca3f
00000340: e146 984f 07fb c83f cd1f 8216 20bc a3bf
00000350: a0ce 7464 880e d3bf a70d 08f7 0bc5 d03f
00000360: abf9 7d01 1ad4 b83f 3c15 b250 98de b1bf
00000370: 273d 930b 519a a1bf 7960 706e 8da6 a4bf
00000380: af53 ce07 0d4f 95bf fc55 b191 1e25 b0bf
00000390: c063 b301 afdf b13f 9587 9ffe fae7 d23f
000003a0: 394e 56e5 64e2 d03f 67dd 7fec 6351 cabf
000003b0: c5f1 aa99 c8a2 d3bf 437d 3ba6 db76 e53f
000003c0: a0c1 af0e 1f05 adbf 7276 b694 7bdb 94bf
000003d0: 51db 32ed dabc a4bf 1d60 7e69 0324 b9bf
000003e0: e553 2fcf fa49 b23f d0b3 ea2a 6117 be3f
000003f0: 60d7 4a3d e116 b33f 6b3c f455 7146 c2bf
00000400: 886c 94f8 7b81 553f 0f4b f987 c8ac c33f
00000410: 0acf ac2f 428f a2bf 18ff 5eed 4a47 c53f
00000420: 8211 a4a9 400b b33f 46d8 1d32 a030 8cbf
00000430: b0b8 3410 36ff 82bf bf4c a778 8001 c5bf
00000440: 9323 1582 9f6d babf 4f57 4060 077c 9b3f
00000450: 13d2 4442 e82d d1bf 528c 3640 9c9b da3f
00000460: 1ce7 ba31 07dd b63f 8a09 b088 def8 b7bf
00000470: 2fb4 facd ee94 b3bf 7f53 d63c 804e d7bf
00000480: ebfe 20d2 f520 b0bf 233e c198 b80d 973f
00000490: c5ce f067 242a 9d3f d32e a167 8bdf 85bf
000004a0: f987 810c df1c b5bf 64d9 bf66 7d48 95bf
000004b0: 2277 c796 ef59 c63f 6b2a 8804 3e5e c8bf
000004c0: 2922 e60e 013a 8a3f 78cf 1325 222e b7bf
000004d0: c873 aa7b 8d91 cdbf 0812 5d1b e752 c03f
000004e0: 26a1 e2f8 3074 b53f fea3 8603 b697 913f
000004f0: 4d48 cc61 c215 b53f 0937 a7db 72ab ae3f
00000500: 34cd 1c83 0e6c c4bf 81fb 2bdc 721f cbbf
00000510: 0edb bb4f 0684 b63f d0b3 20c1 d86b d73f
00000520: 1a98 cd2c 6eda d43f 3e32 92a7 4703 c7bf
00000530: 8622 476d e9cb a53f 95de 3868 d92f e23f
00000540: ef4b 6ae1 aa49 49bf 51a0 0beb d06e a8bf
00000550: c51c ef0e d645 b3bf 2750 8d8b 8ce3 b3bf
00000560: c9ad 2eec 6eb1 b7bf c45c d8b2 b389 cf3f
00000570: 6de3 0ec8 77f7 b3bf d1ae 9a9d c722 d33f
00000580: 3246 96b9 72dc babf 14e4 da5c 67ce b1bf
00000590: 3be1 579b 71bf c43f 82c6 ef2f 3e28 dfbf
000005a0: a116 1656 91a9 c8bf aa9a 6f76 1551 61bf
000005b0: 0b02 7d1c da3d b33f 8108 5dff 1e9a be3f
000005c0: f5e4 8626 f80a 993f f572 dd99 2835 a7bf
000005d0: 871f 0c78 5021 bbbf 392d 1e4d 8342 c83f
000005e0: c794 7ac7 8bd5 c33f 3cd8 9ec8 2169 68bf
000005f0: 1d5f 43e2 018c a83f 6c5d 96bf 1a76 d93f
00000600: 1a86 1a87 03a9 93bf 47da b9bb bf93 91bf
00000610: 7c6c fa2f a16a acbf 4374 e068 c2ba a2bf
00000620: a0c9 ddc8 a9e5 b53f f076 d86b 9e09 c43f
00000630: a96a c302 09a2 8ebf 693f a614 8b53 b5bf
00000640: d7ae 6b0f e771 bcbf 91d8 fa11 c3c3 c53f
00000650: bf65 0ef3 bfd9 cb3f ee8f 85a9 4a47 cbbf
00000660: 7b00 3e71 c88f 95bf fe6f 3ff2 9c27 97bf
00000670: c170 99ce cdd3 993f bcff 57ce 9a45 c0bf
00000680: 337c a452 5ab1 b63f c14d 948f 3231 963f
00000690: 8da5 8721 2bdb ca3f d7ea 7061 d7a8 993f
000006a0: 72df 4d6f 4ed1 a5bf b23d 2e62 9179 b43f
000006b0: a875 208c e307 d6bf 4365 3673 b8a9 e73f
000006c0: c780 063d cd16 b23f 8b60 1278 209f 96bf
000006d0: ee8b 0c7f 635e b5bf e918 3ba4 9d70 c1bf
000006e0: 0aa6 0e06 7f59 943f 43ac f6b3 fede be3f
000006f0: 0dff 6439 3cd0 a43f dfc5 fb94 131e a1bf
00000700: 3323 e69e a12e c7bf da37 65c0 b06c bfbf
00000710: e983 737b 6c0c bebf 108f 2943 30ae e2bf
00000720: 5cb9 c847 7232 d5bf 24ba fdc7 cf37 9f3f
00000730: 1a46 59fe f138 913f 4d7e e94b 6f22 6fbf
00000740: 32e6 62cd a053 c23f fa3a 0b5c 4ddc b13f
00000750: 0644 e3b4 176b b8bf 1a2b 2b0c 99db c6bf
00000760: 715d 3cd8 19a9 b33f 6c0e 104d 7f1e d53f
00000770: 0e43 ee87 c3ac d13f 0610 3db1 4f0f c2bf
00000780: 2a13 005c 721e 81bf 7015 199c 7b80 973f
00000790: 3039 889a e214 a33f 733c 8ba0 4eff a3bf
000007a0: 8a61 c044 2244 bc3f 303a e525 4fb6 cabf
000007b0: fdfc 59b0 b024 d43f cdbb c9bd c44e cebf
000007c0: f451 a295 9bad abbf 0a73 9255 53fe c9bf
000007d0: ad63 c086 3266 cb3f 3e87 751e 6bf6 debf
000007e0: ab2f 89a8 cd0c d2bf afb0 5ba0 7daa 65bf
000007f0: cd25 4553 7f65 b03f c4da 6c21 132f bc3f
0.11704427348566158 0.006992969560052073 -0.014585056064240843 0.02482165304471846 -0.007714034944404769 0.043430249426177625 0.18902457699319544 -0.20105317271398376
-0.19328850796100713 -0.11312266317145935 -0.20824688748095113 0.12659652037968033 0.08198561618674334 0.050902476195234206 0.021215205655970033 -0.012160741772882682
-0.23109254222709688 0.015708987453466054 0.04518202436761865 0.31161231824696667 0.3529774255230823 -0.05497739998252482 0.3033414075976887 -0.07343263634100669
0.20461464878188956 0.0023037140650963373 -0.0727003762627428 -0.06808003625131333 -0.13371267328531466 0.13006942828214604 -0.14327308413189419 0.10202491152881209
0.06364498584644145 0.1437759358322001 0.15385265242404836 -0.20329180576320688 0.09249948256235156 0.002183523505847496 -0.11786534989870716 0.10384105916215812
-0.05325184071299303 0.22637677636906076 0.06939587193023826 0.0033655487443883135 0.03912031536051562 0.0993093275451503 0.4075280657576558 0.055410875602616705
0.1465618399499873 -0.005009409700067986 -0.04894200156054844 -0.04799426689042747 -0.238430688935346 0.05807350353601446 -0.1652466160050579 0.5265882162928892
0.24739715880995586 -0.26729780762715266 0.1548008387896079 -0.3184957467098143 0.12394109805160033 0.033590501284110647 0.0893193786351407 0.047757291466588844
-0.11584447523465563 -0.3506879801639434 0.22769398054543527 -0.06775871636048006 -0.08983323616029418 0.017446257084017626 -0.021726906263626083 0.41588530425822695
-0.2891892111718172 0.012228219304306774 0.11110621330828253 0.1614434365561996 0.2038145021349978 -0.03046515872667284 0.11045601390652024 -0.268286923929506
-0.04091571322227342 -0.03450967253875192 -0.25313630654626135 0.48478465649219665 0.026647327251470416 0.056950727061735734 0.059037219195472286 -0.05397003259690047
-0.08569474028390962 -0.10181907526799798 -0.1786154232360587 -0.06722681406859027 -0.2281489919012002 0.3022849458522323 -0.01217833512222538 0.05065945391179672
0.09005159576479248 0.04416704964254976 0.08702126143313717 -0.06444487533968254 -0.0769492901442496 -0.12923578003764644 -0.19413339889206627 0.21073278135078574
0.19516078363863357 -0.03854465746650213 -0.29776201067145713 0.2620267784515939 0.09698641334941864 -0.06980277986629785 -0.03438046709345093 -0.04033319447643264
-0.020809367753446825 -0.06306639725638513 0.06981939116975777 0.2954089628748247 0.26381800075725753 -0.20560883567643914 -0.3068105221425664 0.6707590338445829
-0.05667969755438951 -0.020368510200219743 -0.04050335069171374 -0.0982057697823397 0.07144134100174389 0.11754424379132833 0.0745678686751865 -0.14277474114394137
0.0013126097349587546 0.15371042861314563 -0.03624922592135078 0.1662381800688244 0.07439045087455123 -0.013764621285854994 -0.009275839204374442 -0.16410833255085852
-0.10323521543354124 0.026840319871630765 -0.2684269568592594 0.41574770232017955 0.08931012119401455 -0.09364119374371263 -0.07649128464500231 -0.3641663164246935
-0.06300293331241462 0.02251327926961556 0.028481072277101633 -0.010680283641839072 -0.08247179084131052 -0.020784339329077098 0.1746196256853461 -0.19037604543003125
0.012805946604900491 -0.09054768948754865 -0.23100441492434087 0.12752999149428512 0.08380418850231716 0.017180294003683365 0.08236327064176514 0.059901799500592
-0.1595476284215721 -0.21189723730637058 0.08795203634859325 0.36595743999606345 0.3258319318323416 -0.17978759462529753 0.04257134875257855 0.5683409724797054
-0.000771721303708948 -0.04772045964438177 -0.07528436531639489 -0.07769087225943903 -0.09255116716547386 0.24638982994722458 -0.0779948104308354 0.29899778739011845
-0.10492627173359706 -0.06955572144478622 0.1620924004089462 -0.4868312328463632 -0.19267479613715913 -0.0021138590995975664 0.07516253657832565 0.11953920111139561
0.024455907203194866 -0.04532744291529937 -0.10597708636134771 0.18952981248399128 0.15495440712144257 -0.0029798183286074125 0.04794317137719715 0.3978335257501928
-0.01919942390543925 -0.01716518004692549 -0.05550101957961659 -0.03658111124261911 0.08553563264812292 0.15654354349037858 -0.014957495114164958 -0.08330601934562555
-0.11111301542740236 0.17003668191836543 0.21758269660931082 -0.21311314847400759 -0.021056301032786422 -0.022612049375183567 0.02522203038675808 -0.12712416720751019
0.08864368932380344 0.02167204858149119 0.20981349122238804 0.025058141062099217 -0.04261250599569068 0.07997997900951395 -0.3442314976144538 0.7394678354495813
0.0706604265201377 -0.02209139569149036 -0.08347150661261057 -0.13624926108440796 0.019872650856688913 0.12059013265268086 0.0406512088834444 -0.03343259042402357
-0.18111057528246874 -0.12275223443177144 -0.11737707151361544 -0.5837632476581991 -0.33120400438465025 0.03048634203099189 0.01681879153176711 -0.0038005994568235725
0.14317712811116362 0.06976779458203089 -0.09538410345273016 -0.17857659429713452 0.07679902581400257 0.32998640561729675 0.27616966509326424 -0.14109226373886957
-0.008358853752733337 0.022951060678925328 0.037268716205391406 -0.039057213876383744 0.11041464022162564 -0.20868863439905416 0.3147393915350703 -0.23677882449143653
-0.054058897033573944 -0.203073899062382 0.21405631618179424 -0.48379018759270653 -0.28203145464498885 -0.0026447728767973948 0.06404872687303183 0.11009330335660211

conv1.lin_key.bias f8 [38]
00000000: 8375 fa7f 3329 a0bf c793 ec47 1580 85bf
00000010: bc99 5bdf b735 cb3f 6263 3c4d 7506 c93f
00000020: 88ed c581 0fb1 d0bf 9bcf 5e67 bc14 c33f
00000030: 55fe 7e38 4aad a23f 7775 9e79 d48e a1bf
00000040: f446 7343 160f cabf d2f7 d6a0 e5d4 733f
00000050: 60de 0f79 5383 943f f865 a325 ebe3 b63f
00000060: cdb2 1f32 48e2 c2bf d9e9 fa91 41d9 c4bf
00000070: 96ce da2a 2106 cf3f ed78 b0ea 54c0 983f
00000080: 22c4 1355 6e81 c73f bf61 60c9 568d a43f
00000090: cc43 d863 69a8 b9bf d36e 164f 1c5d cdbf
000000a0: 6932 7e74 f323 c2bf 0371 8b00 9d73 c3bf
000000b0: becf a9b7 e18a a13f 722b 6102 6324 c2bf
000000c0: 75ff 7171 c06d c1bf 6f37 5120 978a c8bf
000000d0: c748 bff2 0e36 c6bf 5ebc bbba a12a 953f
000000e0: 65c5 dbce 7770 d03f 151f 016a 4fee 9ebf
000000f0: b240 5563 34a2 a63f 622f 9f20 24be d13f
00000100: 6838 8394 a2f9 cfbf ccca 030e 8da2 d03f
00000110: 189c 7939 8476 c9bf 4db0 9b6a 3d17 7cbf
00000120: 0d18 3ceb d5ec b23f 9208 b7f4 7f4e 7d3f
-0.031564339992864475 -0.010498205430460218 0.21257685094970025 0.19550958892139209 -0.260806919795606 0.14907031104450827 0.03647834720277091 -0.03429283127409637
-0.2035854176852393 0.004841706262082428 0.02003221918491105 0.08941526097205343 -0.14753057906582115 -0.1628801310342414 0.24237455933108681 0.024171187233258108
0.1836374202171394 0.04014083107194066 -0.10022600829712686 -0.22940400945377934 -0.14172213733799602 -0.151965737596477 0.03426270834907495 -0.14173543564023877
-0.13616185702630515 -0.19172944143286538 -0.17352473118677933 0.02067043974141957 0.25686450196288596 -0.0302059563112201 0.04420627319871197 0.277230293137782
-0.24980575801459115 0.2599213253844652 -0.1989293366088709 -0.006858100803338441 0.07392632477794354 0.0071549413946191565

conv1.lin_query.weight f8 [38, 12]
00000000: 2296 01a5 18cf ce3f 9125 c176 4337 993f
00000010: 7a2f f73e 93c2 ab3f 0f45 cb69 29de 92bf
00000020: e771 a8dc 9d1c ae3f 34c1 60fe 1c6f 92bf
00000030: fe77 0057 d1d1 b8bf 560e a488 3fd2 b23f
00000040: 6ebc 3bdc 4747 ba3f 42f2 cdf2 941e cdbf
00000050: 900f 2dcf 7834 e63f 5927 10c7 44d3 b7bf
00000060: 993a 2f62 97ff cbbf 661b 71c5 4077 9bbf
00000070: 652f 9ea5 39c7 b5bf e02a 5255 9c46 acbf
00000080: 21e3 757d dda6 a53f e03c d953 edd6 a43f
00000090: 4564 c18a c563 b7bf 4dfc f77a 35f1 b43f
000000a0: 2f84 4368 3522 d3bf da93 4432 73b5 d53f
000000b0: e78b d663 3aa0 d4bf b866 3bd8 d3be d3bf
000000c0: f6f1 0aff b12f c7bf d19e bcdd eb2a b5bf
000000d0: b508 7c90 7aa9 95bf c8de 305d 3211 c43f
000000e0: 931e 04e8 bec6 b13f da72 e544 b804 8dbf
000000f0: 0852 4899 3c0a bfbf 3a18 ac7f b24f d0bf
00000100: a488 97b9 1fdd d4bf c00a 1a90 7523 c73f
00000110: 156c ca1f 1de5 c03f 2475 ec08 755f 9fbf
00000120: e7bd c130 df8a bfbf efb8 63d1 a714 a93f
00000130: 77c4 101c 71c7 a6bf 1583 755f 5c22 c43f
00000140: 62ac 6dc6 bc35 c93f 7af2 c19e e8d5 adbf
00000150: 3453 dd0d e0fa c3bf 8e9d 229d 01d9 d03f
00000160: ffce 2f9b 3884 acbf 553b ef94 990f 9cbf
00000170: 0813 8a2a c04c c63f 77ff 870c a9fc bc3f
00000180: 38e6 034e 8a5a d8bf 878e 25e7 5ab7 a9bf
00000190: 81db 3a8f 809a b6bf 1cdc 89b9 ea8b bc3f
000001a0: cf22 7f53 56e9 b33f d8e2 7b7e e1d2 b13f
000001b0: affa 499d f67e ce3f 2dec 5563 8cbb b23f
000001c0: 0af6 8a88 e39e be3f 0eaf 7a41 de48 bbbf
000001d0: 0537 503e b9a1 acbf d914 59bc 8817 b7bf
000001e0: fdc9 436c 7cec c63f 44a5 e30e ecea a13f
000001f0: 2864 a096 e61f 95bf 8349 49a5 e2de d1bf
00000200: 15e8 9935 106d b43f 3f32 07da dbcb 78bf
00000210: 427f 9961 2c16 e33f 5514 5caf b90f d13f
00000220: 0aee 4144 a84b a0bf 3c88 0ba7 2efe c43f
00000230: 8e40 af8d de10 d9bf bc64 3cef f0df 7a3f
00000240: 0f28 1a45 aa43 db3f c5df e9a4 5bb3 be3f
00000250: d809 7be5 1c81 a23f e6fd b101 b29e c7bf
00000260: f136 6f08 7df5 c1bf 958b 4f1e ed39 a6bf
00000270: b5b0 5559 94ea adbf 9948 026b 6377 6dbf
00000280: 726d 1266 78f7 be3f afe8 e1bd 8fa8 b5bf
00000290: 9327 e142 4cbf d2bf 6d18 577a fbbf c2bf
000002a0: 04f2 2483 3f2e 833f 01c9 e294 115c 95bf
000002b0: 6b71 fc4a d6d5 4e3f b1a0 fe52 96ea b8bf
000002c0: 7fd2 a5e2 7140 abbf 2c33 6c27 398b ae3f
000002d0: 611d 6c8f 9a91 a1bf 60ed c01a eac5 c1bf
000002e0: c571 4061 a278 7c3f 733e 62c1 3d1a b93f
000002f0: c736 500e 7074 7cbf 989d aaaf 7941 d4bf
00000300: a4c0 9f0d 1f0e c23f 1955 6e25 3c88 98bf
00000310: 6a4c 14ba 353c 94bf a914 6b01 80c9 bcbf
00000320: c3b1 424a 1e28 bebf 0e09 ed67 78b5 8f3f
00000330: 12c6 0c3b 8770 b73f babe dd56 a21a d5bf
00000340: a7b3 28f9 ffb4 cbbf 22f5 cd16 0f23 d23f
00000350: cf31 c84c 8441 b7bf e413 8ffb 5851 d6bf
00000360: 1605 49d5 e1cc c93f 8295 09d7 f0f9 9cbf
00000370: 17d4 375d d176 77bf eafd 239c 599d 98bf
00000380: f437 a2b2 a982 673f 93ef cd1e 69d2 9fbf
00000390: 854a 615c 273b e33f 8ca6 e99f 176e abbf
000003a0: 950e 639c 6cb0 c03f 418a 3a12 59c1 b2bf
000003b0: 85e2 1040 38c3 d1bf da7f 888d 7fc7 c53f
000003c0: 64f0 f923 e0fe 7b3f 08b4 d148 c214 9fbf
000003d0: 05b7 0637 aa9a ae3f 21da 05b3 3066 70bf
000003e0: c258 cacc 6a98 aa3f 7cb9 4daa c339 ad3f
000003f0: 49c1 0557 dc73 9f3f bdda c61b 8763 c3bf
00000400: 0f42 665a 3241 d13f 1a06 5646 0919 c3bf
00000410: 276e 3e37 f67b b5bf 2cf6 7a8b 2f40 c3bf
00000420: f701 034a dbc2 d0bf 23b9 63f1 9fb9 bfbf
00000430: 3982 b63d 57bf 79bf ccd4 24bd 84b2 bd3f
00000440: 26aa ad9f 210d b7bf b773 ede4 60f0 b63f
00000450: f6e9 e7bf 130b 9cbf 8edc c97a 173c bfbf
00000460: e3c7 c748 0e1d a8bf e297 bd96 d7d8 983f
00000470: 3113 8c51 f4f9 bebf a782 d7d5 ff7c b0bf
00000480: 2b11 6fd8 af2a b03f a349 77a9 f2b2 a03f
00000490: 17ab 4c2e ec94 863f 2900 836b 4a0a c2bf
000004a0: 256e 46be 0a71 9d3f 1006 f7aa 3e64 ab3f
000004b0: fe92 0ed8 8044 c33f 7518 7250 bb97 9abf
000004c0: eaa4 ada1 38ea c73f aad7 6fc4 918f 993f
000004d0: d20e eac2 f665 c8bf 1116 ba16 04a5 cebf
000004e0: 1944 28f1 8cae c03f 8e6d 3b54 e206 a03f
000004f0: bb81 1390 1a45 b0bf 0451 651a 7581 c9bf
00000500: 467c f448 cf17 9dbf 599b a52f b88a 9cbf
00000510: bf95 f03b b41b e23f 97a4 9d17 8841 8f3f
00000520: 0226 73cb 0cea a5bf e2f2 f58f 7606 c83f
00000530: 59e7 ac49 f6ab d9bf b0bb 8563 f0de b8bf
00000540: b69d b9f5 dbcd d7bf fdec 71e1 c236 aabf
00000550: ee2e 3f16 1ba9 a3bf 0d26 c9c0 da5e be3f
00000560: c118 26f0 053e b83f a239 23bf 166c b83f
00000570: 050e af8f 9740 cfbf ce4f 1345 4be3 e13f
00000580: 4370 4547 a04d b43f 5aab 91c3 0366 bdbf
00000590: a168 ff36 80f2 dabf 39c3 725a 6816 c73f
000005a0: f4e0 f166 05cb c53f 53de 8ae3 48ae ae3f
000005b0: 1c0e 6375 5498 90bf c85b 5ca8 a82b a2bf
000005c0: ca77 f4c0 7a11 c6bf 1015 c95e 61cb 82bf
000005d0: f907 08a7 99ae af3f f175 c6b5 005a 99bf
000005e0: 65ca 25ec 4b82 a13f f351 29ec 95a1 80bf
000005f0: f00a 40c8 5d03 cfbf 1e19 4efe d296 a53f
00000600: 4c51 cc8f 84e4 c1bf b8ba 8432 98ce a0bf
00000610: 6523 bcf8 9c94 943f 2b1d e31c 4564 bf3f
00000620: 1731 567b 1327 a73f 9fe8 22cb 5935 603f
00000630: 38eb cd79 5350 dbbf e069 d0c6 aa2f b23f
00000640: 3b6c e236 2205 863f 17f2 179d d2d2 c5bf
00000650: a572 a825 66df c53f ad41 72eb 54ca b43f
00000660: 8457 7575 f390 d53f 1028 9294 8a2a 963f
00000670: 70e4 ef53 a9fc ab3f fd6b 1fdc 048d 953f
00000680: 3837 cc74 f80f 95bf 1098 996d edc5 9e3f
00000690: 317c 005b 92a7 d03f 25c0 fa0c cacd e43f
000006a0: 0d7f cb81 b7de 5fbf 4e43 8f90 0644 d03f
000006b0: b236 d15d a33a eabf 87ed 5e92 66f5 c83f
000006c0: 3e79 e9bd ec23 cebf 1f82 2fce 42ac aabf
000006d0: 9458 6035 c988 993f 58ed ad31 b0b3 bb3f
000006e0: 377d 0b11 32b6 bc3f afad 1f20 4b9f af3f
000006f0: cd50 d397 d706 d6bf f76e fd70 600b db3f
00000700: 1d7c 9358 4b7d b83f b45d e452 04ad a53f
00000710: 4e12 5edb b45a d33f 6f93 443b a762 d33f
00000720: 90d0 247a ee9d c0bf 67a4 a15b 6e69 a03f
00000730: 1fae a7f8 5dba 873f bf95 3733 fbce abbf
00000740: 19c1 9681 a575 a0bf a6fb 6cad 71dc 9e3f
00000750: 5780 7b83 3069 dbbf d76c dcf5 7a95 bdbf
00000760: 8536 dad5 8903 acbf 7abd d784 0d64 c53f
00000770: 0fa9 e64b 83f4 e3bf b39b 799e fa78 d3bf
00000780: e7dc 7cce 44bf d9bf 7fb9 7bae 3ae4 a93f
00000790: 768a 469f e2d8 a53f 8780 1be3 edb8 c6bf
000007a0: acc8 88b1 2d83 793f 3511 27b5 8183 a53f
000007b0: fdb0 3d6a 4a9a c63f dd6f 557e 8d49 e63f
000007c0: ac33 1163 ed6f 923f 4e6c 5177 885c ba3f
000007d0: f88d 961c 962d f3bf 17a7 0815 dd5e c43f
000007e0: e10d 8747 8eab d93f 84e7 078d c2f5 be3f
000007f0: 03ad 1f9f f39d b43f a59c 2acd 3709 c1bf
0.24069507653182237 0.024624876139829836 0.054218865810610375 -0.018425604898600286 0.058812077699460556 -0.018001988435743146 -0.09695156454151285 0.07352063260992145
0.10265015723028778 -0.22749578338324922 0.6939052626043907 -0.09306745395602202 -0.2187375287453122 -0.02682210164155254 -0.08507118504911444 -0.05522621671214778
0.04228870541095931 0.040702263341353406 -0.09136614453872578 0.08180555584111567 -0.29896292860036316 0.33919982823345907 -0.3222795462590384 -0.308522187389467
-0.18114304497966288 -0.0826861778592687 -0.021154322689661515 0.1567748026879967 0.06943886913733825 -0.014169158556506845 -0.12124994985817505 -0.2548643347548737
-0.32599633335315503 0.18076962982384792 0.1319919972637257 -0.03063757769551957 -0.12321276607848795 0.0489857142546145 -0.04449037044140252 0.15729860936246412
0.19695243538749013 -0.05827261865576801 -0.15609360386829396 0.2632450136684036 -0.05569626707429442 -0.027403259005775855 0.17421724393002358 0.11323029094637414
-0.3805261384837624 -0.050227013317251816 -0.08829501625846882 0.11150996236561678 0.0777791932915861 0.06962403619753432 0.23824961357236904 0.07317426133333589
0.11961195071759093 -0.10658063028921225 -0.05592135320340045 -0.09020285223330705 0.17909198080413083 0.03499543840173172 -0.02062950414992684 -0.2792288412212189
0.07978917416213023 -0.0060537898975324125 0.5964567095033788 0.26658479809731733 -0.03182721932622819 0.1640070262574812 -0.39165462337860724 0.006561223173570937
0.42600495098361163 0.11992428566179487 0.036141303074618214 -0.1845304973867165 -0.14030421172940735 -0.04341069216731978 -0.05843032446395694 -0.003596967864788314
0.12096359722129593 -0.0846032942371575 -0.29292589694215926 -0.14648383592265493 0.009365554990488974 -0.02085902663447659 0.0009410187103387318 -0.09732951666103663
-0.05322605029769977 0.05965593916162101 -0.03431399346123488 -0.13885237032250597 0.006950983330196119 0.09805665942462287 -0.0069469811615030025 -0.3164962974064678
0.14105594792591092 -0.02395719507656677 -0.019760932428721047 -0.11244964632631373 -0.11779965699196908 0.015482845946853032 0.09156079475067028 -0.3297506187727596
-0.21646117845503207 0.28338982798580237 -0.09084345697937767 -0.3487150627736908 0.2015650073463255 -0.028297198414653398 -0.005728547886509914 -0.02403774276262808
0.0028699221048276106 -0.03107609034076082 0.6009709171579095 -0.05357431246814057 0.13038404117661587 -0.07326275534664096 -0.27754026657525116 0.17015070353318046
0.006834865139918465 -0.03035262650921669 0.0597737495585147 -0.004003706199333241 0.05194410085566538 0.057081331767096594 0.03071541100638456 -0.15147484642303324
0.2696042902762494 -0.1492015450894975 -0.08392275665976766 -0.15039629278719369 -0.2618931029101356 -0.12392615931796462 -0.006285992417730806 0.11600522630472482
-0.0900441183891095 0.08960538472224654 -0.02738600596237891 -0.12201067683951036 -0.04709667814667264 0.024264687133289338 -0.12100150099656727 -0.06440733881710035
0.06315135034589463 0.03261526411701545 0.011026234782169504 -0.14093904733272325 0.028751533378097122 0.05349918210005111 0.15052805471091085 -0.02596943548680782
0.18683536428878905 0.024961736311489048 -0.19061169163989305 -0.23941088781082034 0.1303268601919008 0.031302521497958855 -0.06355443971143064 -0.1992632273564895
-0.02841113932401764 -0.027872922809730614 0.5658818407725262 0.01526171037740402 -0.042801284632854944 0.18769723920185927 -0.40112073130477693 -0.09715177945848441
-0.3719396495493713 -0.05119904520048555 -0.038399549928355245 0.11863486487086324 0.0946963988591021 0.09539930502362506 -0.244158692510709 0.5589958523873919
0.07930948009510623 -0.11483787083277033 -0.4210510766112155 0.18037132660313107 0.1702582123432489 0.05992343690507753 -0.016206092514734136 -0.03548934035477874
-0.17240843221310193 -0.00917697973739931 0.061878968848773704 -0.024757395834617616 0.034197208954442705 -0.008120700139593295 -0.24229023244705372 0.04216632227239557
-0.13978631039993628 -0.03282619110756485 0.020098164254736334 0.12262374835255645 0.045220001989124174 0.001978564622814607 -0.4267777146812253 0.0710398421655678
0.010751979160252492 -0.17049629850943468 0.17088009680528163 0.08121233699990311 0.3369721076063501 0.021646657293366955 0.054662028785920636 0.021045757231927798
-0.02056873524548239 0.030051908316089337 0.260227764958418 0.6501207593446493 -0.0019451896725328239 0.2541519557681128 -0.8196579773300157 0.19498903414737986
-0.2354713370613783 -0.05209549681581315 0.024935859568437538 0.1082105752265553 0.112155083810184 0.06176218764434382 -0.3441676123304774 0.42256938013245765
0.09566183960440396 0.04233563911310104 0.30241128370861226 0.3028963164127196 -0.12981968845418068 0.03205437534854454 0.01158593573651162 -0.05431351661881533
-0.03214757162948185 0.03013780232435761 -0.42829525795059936 -0.1155621385809583 -0.05471449599745618 0.16711586939298312 -0.623597763294386 -0.30425897098615023
-0.40229911961382786 0.050569375800352916 0.04267032808572406 -0.1775185927317617 0.006228617181976908 0.042018941272120726 0.17658357799098914 0.6964786021667312
0.018005093738156994 0.1029744426063399 -1.1986294857714466 0.15914500739136692 0.4010959337722096 0.12093749945770865 0.08053515086037426 -0.13309381025212477

conv1.lin_query.bias f8 [38]
00000000: ff1f 49d0 257c c63f 4952 1fe0 5bdb c5bf
00000010: 498d d782 8c6e b1bf ba78 4aac 6e5d 8ebf
00000020: 7ae8 37b4 8f0f c2bf 38e0 89bb c96f a2bf
00000030: 4dce 5bc1 fc97 c33f 9bdb 0de1 c3cc a3bf
00000040: 1e6c 4cf9 b179 a53f 438e dfe2 ada9 b23f
00000050: 5a1a 4fda 672f c43f 4373 04e4 fd41 b3bf
00000060: 6af5 884f e7ed 903f 126d fb1d 0322 bfbf
00000070: 2256 2300 623f b6bf d306 86ec c236 b4bf
00000080: 48d9 a5ae 72fb b33f 6f2c f45e 8912 c53f
00000090: a476 8fee 4696 c2bf 7fb3 7125 ddc4 b93f
000000a0: d182 0b48 474e a9bf caef a9aa 5f3d 98bf
000000b0: 0860 a84e ca8d 9a3f 1c91 b6e2 f69d babf
000000c0: 1fe7 90bb dfdf a43f 308d 8552 fa79 b03f
000000d0: 6c56 a6d5 fc62 cb3f 7416 1ffa eafe c63f
000000e0: 3fa5 64a2 db23 cd3f dd34 56d8 7e84 65bf
000000f0: 33d4 0c51 6bb0 b13f 96b9 713f 8e45 c4bf
00000100: e2da e5d1 bded 963f a706 992b 11a7 c33f
00000110: bc52 8263 7ff5 c13f 2bcd 9418 23a0 ddbf
00000120: 175a 8f06 6184 c23f 8072 0bec c546 983f
0.1756636874217747 -0.17075680201982582 -0.06809309191117054 -0.014826645501042502 -0.14109989452100874 -0.03600912489213254 0.15307578507746414 -0.038671609136989825
0.04194408577151186 0.07290159977815684 0.15769670638674677 -0.0752257043536249 0.016532530049734907 -0.12161273462281866 -0.08690464499826381 -0.07896059298038986
0.07805554164756245 0.1646281922952286 -0.1452110924573634 0.10066015400088978 -0.049425342125464795 -0.023671622077458022 0.025931511927495904 -0.10397284541119628
0.04077052273392056 0.06436123385133352 0.2139583628856373 0.17965447628937492 0.22765679768898825 -0.0026266553347285963 0.06909819344294092 -0.15837267015326678
0.022391286789082872 0.15353598240658536 0.14030449255792188 -0.4628989925433468 0.14466488666830976 0.02370747807695972

conv1.lin_value.weight f8 [38, 12]
00000000: 85de c5f2 de1f c53f 3498 7cca fe05 893f
00000010: 2e0c 765a bd3f a2bf 65f2 014d c210 e2bf
00000020: 036a 05f1 d719 be3f 5ee5 7970 acfd b13f
00000030: 5e20 c338 e2b3 e33f e837 3743 c570 e53f
00000040: 821d abd8 d980 e0bf e640 0701 5dbf d23f
00000050: 0c85 f3f7 cdbe d23f e446 04ba 80c9 df3f
00000060: a36f 1a97 59e1 b0bf 72bf c56f 04d8 b03f
00000070: ebe3 6eaa 81d8 a6bf 2aee 4b9b 93e6 b6bf
00000080: aeba 668d c7ae a13f abc5 8103 c6d2 c9bf
00000090: 20db 498a 02c7 e4bf 6565 f4b0 205a d1bf
000000a0: 6061 c6d3 6c7f d4bf 0573 943e b7b0 e8bf
000000b0: 1f56 8048 bcc9 d33f 6148 8b57 3292 d83f
000000c0: a6a3 7eef 682f d2bf 296a 36b0 883d 9a3f
000000d0: 4aab f29b b4bd aa3f f6ac c35b e58f e13f
000000e0: 504b 4b01 e36b c3bf 9d61 a467 d61d d33f
000000f0: 8a3d 65d5 3646 9e3f b2bc 0623 6107 bb3f
00000100: 191a b702 ba2b e23f 51c3 610b 6ac4 e53f
00000110: 410a 20e0 9387 efbf 01c1 43aa 5d65 e1bf
00000120: 2733 40c0 1505 b93f 74e3 2498 5c1b b03f
00000130: 595d 3cb3 ec0c aa3f 3e9f 2a4e cbac c43f
00000140: 8491 6aad 8660 c33f 9b12 d234 7f93 9bbf
00000150: 13cf 0c3e 1fc6 d2bf 49d7 36c7 2ebd d43f
00000160: 5231 b569 6220 d7bf b532 dae5 8595 c23f
00000170: 3b8c 4bc2 fbc8 bc3f ca23 7b93 d0a4 c1bf
00000180: 4d24 1ff2 62a0 c53f 1ad9 c8d2 6e18 a73f
00000190: 8519 3b5f c3a1 b1bf 17c2 659b 8640 c53f
000001a0: 8a31 f4e3 419a d0bf 7c39 b30d f24a a83f
000001b0: ddd9 76b4 e273 833f 224a 6c3c 532d d8bf
000001c0: 3720 5efa b5bd d4bf b210 6c62 4551 ad3f
000001d0: e867 24c4 0d5c b93f 3159 63db 924d c1bf
000001e0: 8c80 b57c 20eb c2bf 7f9b 2ad1 4b03 a5bf
000001f0: 3ed3 00ea 9972 c93f ecf9 10a5 ad9d a33f
00000200: 0556 4db1 fb63 c5bf 373e 0544 90de adbf
00000210: 2ed5 ca77 211f dc3f 6f7c 7e8e 65c3 e23f
00000220: 77e5 9fd4 e9ac da3f 9f50 cc04 b2c0 e13f
00000230: c996 1235 7e9c e4bf 39d9 26f9 0d7d d9bf
00000240: c0e4 5ab6 a6d3 debf e4d6 ab08 defb 993f
00000250: d820 c52b 3322 aabf 222d fefa d2cb cc3f
00000260: b503 0604 b99c c23f 8fb6 0ff2 80d5 a13f
00000270: 6547 b483 2607 d3bf 103a ad21 17d2 d5bf
00000280: b36e c5e3 6bad d33f f579 be8a 5419 c4bf
00000290: 4bda 31b0 7d89 c83f b127 0fb5 6f34 db3f
000002a0: 952b 7a27 7a38 cebf 079d ffca 4fb6 b13f
000002b0: 1a5c 79ee cddc a3bf 9217 9f8d 7eb8 af3f
000002c0: 3879 1188 b477 d23f 8fcd ee74 5f6d c5bf
000002d0: 7675 a401 be0a bb3f 39d4 94f9 3adc b93f
000002e0: 7705 ff05 8449 ba3f 1f0e 3bfd f7cd d4bf
000002f0: eb7a d270 ea3f a63f b1d4 4074 01fc d53f
00000300: d761 3750 11e1 ce3f fbab 447c 7ed7 9bbf
00000310: 72ad 6e53 26c3 a63f 9ee9 06da c892 cdbf
00000320: 8336 f8dc 32ea d8bf 9639 fe5e 9097 b7bf
00000330: b6a6 1d36 4707 f03f 3116 5572 e723 ea3f
00000340: 3e6c 872f 9348 b2bf cc7c 5a3a 737c e53f
00000350: ec15 65bf d5ff eabf 93ad 723c d269 e5bf
00000360: a361 3aed 3f23 cfbf 8cd6 e947 9cc3 aa3f
00000370: 6e77 8050 b67e b53f 96a2 ec41 62db d23f
00000380: 67ac d4e7 7737 bfbf f047 dc33 f93f b1bf
00000390: 4c98 9e66 e71f b9bf 562f 5cc8 562f d1bf
000003a0: 0715 b43e 4e67 e63f c1b7 dff0 2200 dd3f
000003b0: 6e66 20a8 8315 c2bf 7ac6 6fe4 35f0 e6bf
000003c0: 339f 3194 eb03 d3bf 3162 1f0c 6791 c53f
000003d0: 0fed c35c 4ecf a6bf cb39 dd97 0b76 c63f
000003e0: f369 9915 4952 bdbf 91bc 6a53 655e bfbf
000003f0: 280b 32b7 986c de3f 793c 3beb 6f92 bf3f
00000400: ec90 7407 9a84 a7bf fb85 0c5e 994b c53f
00000410: 6ef6 4cce 6373 a8bf 2c23 59ec 19c1 c3bf
00000420: 4034 27f7 a8a4 b0bf 0a62 37b1 06ad bd3f
00000430: 66be f69d afe1 bb3f 8b11 790c 11a5 9a3f
00000440: 0291 343b af3e babf 1ff7 8cd6 4336 ac3f
00000450: 697f c4cd 4dd8 e63f cb5b a473 2360 e53f
00000460: 4579 4423 9a6d dabf f718 5882 85f3 e43f
00000470: d745 196f 96be e1bf b251 e5dd 0ba7 dcbf
00000480: fbee 7d09 6d79 cbbf 9d4b c273 e7d6 8dbf
00000490: 1a15 3d1a ffb2 ba3f cba5 7a8f 080b c93f
000004a0: 0c5c bf49 4e5b cebf d9f7 1216 7a42 a0bf
000004b0: fde4 4fff 75a5 d23f a59f ad25 62bf ba3f
000004c0: b872 c3e3 ae4d c43f 4e83 d660 9e02 d43f
000004d0: 60e9 5a9f cdd2 e9bf 6369 4326 e7c9 e0bf
000004e0: 094e bc0f e824 d2bf 36d6 7e81 516c bc3f
000004f0: 4091 1a90 5b0a b03f 3bf2 b48d 14a8 b5bf
00000500: 20ee 6e72 614d c43f a8ba 891c e4b6 b03f
00000510: 1aef 641b e9b3 cfbf e8e4 e99f 1e21 e9bf
00000520: 2ecc 8486 a5ff c63f a3c3 d1a4 30f4 c3bf
00000530: ec4d b3a0 9ada e1bf 32e7 76ec 9f8b bebf
00000540: d488 98ac 9e1a ce3f 9523 48d2 9146 b9bf
00000550: bf19 ff77 15da a93f 77eb cca3 6a5c e7bf
00000560: ae43 6a14 8366 b63f b145 a7d3 1fa9 983f
00000570: cc9d 6e8d e99b edbf 5494 7cec 518f debf
00000580: ad65 d750 cd28 d7bf a892 cd24 8499 e6bf
00000590: 8902 f02d 90c0 db3f bc49 ca7d 730e dc3f
000005a0: d2f2 08a2 1bf0 d43f f6e3 cd53 05d0 b23f
000005b0: ca0d ba50 55ea 91bf 7c87 bb40 ec71 e9bf
000005c0: e295 c859 0803 c23f 0fc8 ce4b 7efb b5bf
000005d0: 3e06 cb86 49ae f13f a1c2 89c8 1665 e83f
000005e0: bfb0 59b9 c718 cfbf 16f8 01e7 1906 e13f
000005f0: b7ad ffe5 ac2d d8bf c756 f8ee 96b5 e5bf
00000600: 618d 34bb e277 debf 7159 e866 8e6b 9dbf
00000610: d746 097e 2787 b73f 61b3 61dd 38ce cfbf
00000620: ea44 22e4 b27c a5bf 11d3 2984 8e88 c0bf
00000630: 952b 83ab e24a f13f b832 957f 454a e83f
00000640: 749a 03ff 19ba c13f 2f67 577d 6b5d e13f
00000650: 5dee c84e 3034 f1bf 521e 4251 1005 e1bf
00000660: fa54 a7c8 5a69 c13f 68fe ee0a e552 b63f
00000670: e655 26a7 8274 c33f 6ece 823b f916 bf3f
00000680: 2635 437c 92b6 d2bf 9839 2821 0f9e b13f
00000690: 7596 5c71 f8e3 e5bf 94b0 836a 1e91 dabf
000006a0: 5daf 38f3 85a7 e1bf a2af 02e9 0ab4 f0bf
000006b0: e185 f189 725c f23f 369b 6b05 059c e03f
000006c0: 66ee 942b 8e36 db3f 8c8e e3b3 a6ae b43f
000006d0: f2c1 1356 29ea ac3f d92e 9124 dd08 b6bf
000006e0: f4d9 f303 b71e bcbf 955b ed24 6a33 c2bf
000006f0: 3641 362c 39a4 e03f ed68 1d29 0214 d53f
00000700: 8928 d71e 385d d2bf 0dae dc58 2763 e13f
00000710: 7e98 cff3 ad0e efbf c842 6599 c713 dbbf
00000720: 48ec f20e 632a 973f 96fa e885 baa0 aebf
00000730: 91ac f954 e59b 58bf f83d 6d5f a94f 6ebf
00000740: f1e8 8f76 21b1 a6bf 451e 54fc bac8 abbf
00000750: a908 cfc9 4039 de3f 0c8d b9c6 7726 bf3f
00000760: 826e 1cb4 5f8c e3bf cb9c 6d87 314c b53f
00000770: 49b7 68cd 33bc e4bf 133b 18bb 1bb8 c6bf
00000780: 02cb f009 9738 96bf cef5 8e63 2ab2 82bf
00000790: 0d86 5dae c4a7 c7bf e9a5 958a 97d4 e7bf
000007a0: 9df0 6468 742c a43f 38a1 069c ed1c d3bf
000007b0: 0013 de74 f795 d63f a113 3e4f dd6e ce3f
000007c0: e861 e353 a143 d4bf 88b6 557e b661 a4bf
000007d0: 791c 4ad5 1831 abbf b3ac 4553 6204 d7bf
000007e0: 9b49 76ac 5219 d8bf 1047 8e7c 9ec9 9bbf
000007f0: c406 301f 7c2b c1bf 27bf 1375 f075 ccbf
0.1650351224341088 0.012218466333774193 -0.03564254502546081 -0.5645457748465331 0.11758184084229843 0.07027700181960969 0.6157084568631139 0.6700159371191576
-0.5157288772397097 0.29292988872931713 0.2928957864188113 0.4966737572259332 -0.06593856753391818 0.06579616288013115 -0.044620563559369796 -0.08945581952496498
0.03453658677186887 -0.20174479647861907 -0.6492932034442198 -0.2711259582589121 -0.3202774112810598 -0.7715717527640612 0.3091879566212316 0.3839231352732267
-0.2841436709227828 0.025625358348046277 0.05222858813916405 0.5488154213211647 -0.15172994197072365 0.2986961376314186 0.02956472089254939 0.10558135132918059
0.5678377202064581 0.6802263471891853 -0.9853000047153914 -0.5436237645608629 0.09773384040472576 0.06291750635581456 0.05087985694825176 0.16152325932238826
0.15138324229804934 -0.026929843520081858 -0.2933424097020502 0.32404679731859126 -0.36135158846879734 0.14518808100947003 0.1124417638161938 -0.1378422470209258
0.1689571077570541 0.04510828326276535 -0.0688745601174557 0.16603167140739636 -0.25941512356873686 0.047446788952231395 0.009498377926189622 -0.3777664270466251
-0.32407903146713885 0.05726067377511991 0.0990608791220492 -0.13517986023243503 -0.1478005036287907 -0.041040772707950694 0.19880985189379347 0.03831236495942733
-0.1671137443287735 -0.058338650038987465 0.4394000692221479 0.586352136906397 0.416803796426016 0.5547723859513275 -0.6441031490873793 -0.3982577260134295
-0.48166816528425827 0.025374860076189956 -0.05104217442800668 0.2249702191878465 0.14540779777965232 0.03483202891207526 -0.2973114286588639 -0.34094789780365975
0.30745980494769326 -0.15702301764117946 0.19169589141138696 0.4250754612118 -0.23609854629134178 0.0691881056405813 -0.03879397903499911 0.061954455173277925
0.2885562256614267 -0.1674002953492217 0.1056326631555374 0.10101669877333642 0.10268426081076663 -0.3250713322597409 0.043456388733138805 0.3435062060628509
0.24124351898968996 -0.027189232191783912 0.0444576241346465 -0.23104200979089468 -0.3892943532854149 -0.0921564323345819 1.001776896848623 0.816882823281679
-0.07141990576148857 0.6714416637149951 -0.8437298525029155 -0.669167631208824 -0.24326323588753693 0.052273639467711325 0.08396472421051523 0.2946401256363428
-0.12194013032846983 -0.0673824073421938 -0.0981430650268475 -0.2685143429414344 0.7001105522801091 0.45313333056298793 -0.1412815638475879 -0.7168225728657511
-0.29711427185110323 0.16849983302997054 -0.04455037004842143 0.17547745623819674 -0.11453682687116622 -0.1225341156630171 0.4753782071131121 0.12332820408777136
-0.045933545503688084 0.16636960117561714 -0.047755354817564974 -0.15433048286856754 -0.06501251253139717 0.11592141939707559 0.10891244513072137 0.026020304094588147
-0.10251898951952756 0.05510150903726995 0.7139042872331461 0.6679856547005952 -0.41293958133782765 0.6547267480644042 -0.5545150918862259 -0.4476957003546672
-0.21464312518570935 -0.014570053310569092 0.1042937697466936 0.19564921384635023 -0.23716143227531494 -0.0317571784921566 0.29134893353291585 0.10448277873876906
0.15862070199263711 0.3126598306353586 -0.8069828140644795 -0.524646353467045 -0.28350259339023914 0.1110278073454872 0.06265804546507514 -0.08459595164908588
0.158611470103879 0.06529069611290572 -0.24767793500529295 -0.7852929232896289 0.17967671459482076 -0.15588958785840842 -0.5579350603751982 -0.11931800387438043
0.23518737247019905 -0.09873305686791263 0.05049197282601225 -0.7300313185909165 0.08750170944610033 0.02408265809373739 -0.9252822649331676 -0.4774975594940021
-0.36186535734813213 -0.7062397688683477 0.4336281250580574 0.43838202747533805 0.32715502570844734 0.0734866456604236 -0.01749547295777435 -0.7951565994555803
0.14071754821740884 -0.08586873389029413 1.1050505891183913 0.7623399655113482 -0.24294373083410467 0.5319947730893115 -0.3777878042298783 -0.6784166972526798
-0.4760672405411324 -0.028730607062322947 0.09190604044968197 -0.24848089990282587 -0.04196700129353721 -0.12916737988748442 1.080782575578927 0.7590663425304092
0.13849186851367146 0.5426537941050124 -1.0752413823637632 -0.5318681323123633 0.13602766797581706 0.08720237271244857 0.15199311410530852 0.12144429877189974
-0.29239332327854795 0.06881804046154227 -0.6840784277053006 -0.4151073494129005 -0.55169961456475 -1.043955717274891 1.147570170251463 0.5190453630319556
0.42520479446441184 0.08078996555155465 0.05647401023623279 -0.0860727514529417 -0.10984367224214237 -0.14219404986462494 0.5200467933191593 0.32934621825337623
-0.2869396496940984 0.5433537231051006 -0.9705419313365977 -0.42308225612673 0.022622630870255983 -0.05982001194614843 -0.0015020122117686311 -0.0037000949918490865
-0.04432015011112068 -0.05426582651312776 0.4722444506443347 0.12168072320632833 -0.6108854787630238 0.08319387012817285 -0.6479739200492328 -0.1774935401485541
-0.02170024870083421 -0.009128886378557601 -0.18480738176280945 -0.7447011667947524 0.03940166258186759 -0.29864063488868764 0.35290323651160804 0.23775831574689923
-0.31662781898697157 -0.039807989999514126 -0.053108955417933985 -0.3596425831990004 -0.37654558984754666 -0.027136303283959384 -0.13413955233413877 -0.22234922138840682

conv1.lin_value.bias f8 [38]
00000000: eac8 90a8 7366 b1bf 433f 8340 dbdd b33f
00000010: 15a1 813e 789c c03f 753b dba8 a664 bdbf
00000020: ccf1 8f77 0643 d1bf 167e f9f1 c853 a9bf
00000030: 2902 2442 6187 85bf 92a0 dcb1 9d2e c7bf
00000040: ec83 56c3 d6b7 d0bf 2446 30bd 8333 c9bf
00000050: 229c 2175 8d07 a7bf 74a2 c7c0 b674 c13f
00000060: d686 f6c3 c175 b43f 83d1 bac7 9a19 bfbf
00000070: ebf9 6994 c9e6 b1bf 2b2a e4dc 8bec bf3f
00000080: 6a75 f660 8d85 acbf b290 59ac 4461 d8bf
00000090: ca6f bdb2 d1ea c3bf 74f9 30f0 02d6 d2bf
000000a0: 0e7d 5a4b 3452 c5bf bba0 0384 e9b9 b23f
000000b0: 66ec aaaf 7b39 d0bf c8cb 42dc 36e3 d5bf
000000c0: d1dd a59d 8d7b b9bf a80f a78d d0a4 acbf
000000d0: 24d9 be89 5af0 abbf b9b1 e894 60a4 a4bf
000000e0: 4c95 d893 983f afbf 7890 d321 70a9 c9bf
000000f0: 81f5 e6f2 b9f4 d3bf e885 4ebf 57e9 b93f
00000100: 8f24 5975 fc52 c33f d64a 7cbc 2d25 81bf
00000110: e612 b065 fbdd c9bf c73d 1ac2 cac8 d2bf
00000120: 48db 6786 ecef d1bf 2cfe af8c 7266 c9bf
-0.06796954026575333 0.07760401082054806 0.1297750764090401 -0.11481706259222142 -0.2697158973312781 -0.04946735338011991 -0.010512122946694085 -0.18111010727557592
-0.2612206370923207 -0.19688460099909932 -0.04497949652505208 0.1363743249232986 0.07992182764294439 -0.12148444534506635 -0.06992778657329494 0.12470316069462999
-0.05570642288806023 -0.3809367831329481 -0.15560361125505856 -0.29431222397024404 -0.1665711753785008 0.07314929459573964 -0.25350849299474587 -0.3419930602059904
-0.09954152201486656 -0.05594493607671264 -0.0545681279322017 -0.04031659906135893 -0.06103207402001462 -0.20048333789521045 -0.3118119117824208 0.10121677799772721
0.15097003679173723 -0.008371693911191452 -0.20208685364936868 -0.29350537257502335 -0.28026879430347096 -0.19843894834046816

conv1.lin_edge.weight f8 [38, 2]
00000000: 8230 031c ad97 dbbf a479 4519 ed58 fbbf
00000010: 121c ddc9 cd17 e33f 94ff a2b9 e959 f23f
00000020: 58be 1e38 895b cdbf 8306 5fac 5a4d d0bf
00000030: c776 d1e7 e089 e23f 2ce7 79e7 dcd4 cabf
00000040: 75c7 73d5 b58e dc3f 65d1 d597 4c44 db3f
00000050: c989 62eb 2dd8 dd3f 8964 59f0 c9e6 f43f
00000060: 06bf 62c8 e6d4 e4bf f753 04ef 129e c73f
00000070: 8b03 51ab 3567 b8bf b5da 0352 cfdf b0bf
00000080: 711c c657 5aba ccbf 1685 9702 c242 cbbf
00000090: 412e 3447 5560 b1bf 0949 8c5a 0d4b e03f
000000a0: da0e ddb9 ed89 e03f 7c57 2a39 609d d8bf
000000b0: 8778 98c3 cbee c8bf 9147 3c47 55a8 c83f
000000c0: da18 53d7 d575 ed3f 7b03 2fa0 8bfa e33f
000000d0: 7d7f d7bb 5730 a9bf 8c09 fc42 3e30 f43f
000000e0: 1ee6 1b7f 8199 e93f 716e efcc 404d f63f
000000f0: 6b28 5d01 5c38 e8bf 5a5d 3de3 c47d eb3f
00000100: 317f 7227 c6b5 cfbf 80ea f32d 7dc5 e9bf
00000110: 4b57 2456 2ac4 eb3f ab54 9a7a 1af3 f93f
00000120: 226b 8229 f163 e23f 3f5a 03db f1e4 dcbf
00000130: c5c2 6a40 41cd f23f 4720 aa4e 34e7 ec3f
00000140: dcf6 c8cd 7aa6 e43f 441f 375a e884 fc3f
00000150: 5247 3b23 eaac eabf 77c2 9afe 7e20 ef3f
00000160: 3bbc 5399 cdae aebf 9dd4 e521 8e92 ea3f
00000170: 77c1 61c9 d20d a9bf 1e18 4805 50cd 0940
00000180: 80a5 d5d8 151f dfbf 2d5f 94de 97ec dc3f
00000190: cd29 2e30 7430 c93f ad52 fa3f 87e4 c4bf
000001a0: 6eb4 d28d 7a87 e93f 9d63 8421 6d17 e63f
000001b0: 449b a5a0 dd94 e43f f297 f5cf 4163 0140
000001c0: 55d2 9cca d55a 9ebf 5c82 3f62 f6e6 ccbf
000001d0: 3298 9272 4cea e3bf c0c6 643c fd35 d73f
000001e0: 2f71 64fe 220e e83f 150c c5b0 31da a0bf
000001f0: fd69 b408 e6e1 9cbf ee0c 3dff 3ee2 e5bf
00000200: b668 1945 3e1f e1bf 94de 23a6 c99d e8bf
00000210: 6906 9fae 7daa e33f ca79 a12f 6be9 e63f
00000220: 15f7 2084 8b85 ea3f f17f e7ed 007b fb3f
00000230: bbc8 a63a 5b37 ec3f 69ac 3afe 7556 f23f
00000240: 3884 4e3b 35e7 b4bf e57c 6864 1f07 d0bf
00000250: 3795 260f bbe3 de3f 77ef 69e4 c520 ddbf
-0.43113258109656993 -1.7092104899562424 0.5966557448053911 1.146951413291366 -0.2293559574149977 -0.2547213252365525 0.579330876131018 -0.20962106039569883
0.4462103447432278 0.42604365184458565 0.4663195418053446 1.3063449276581045 -0.6509889520438896 0.18451153441188214 -0.09532485420733232 -0.06591506721802427
-0.22443703924020356 -0.21297478796535846 -0.06787617672323966 0.5091616409793299 0.5168369894167555 -0.38460546095426884 -0.19478747416082262 0.1926371190862111
0.9206341939505152 0.624334156855283 -0.049196950607210056 1.2617781273444022 0.7999885065648333 1.3938606267246565 -0.7568798090590126 0.8591026724124433
-0.2477348034490148 -0.8053575418010297 0.8676959688625429 1.6218514241384507 0.5746999560099975 -0.45147367847440373 1.1751110569277199 0.9032231842438784
0.6453222293127641 1.7824481510196657 -0.8336077392689083 0.972716805719826 -0.05992739197414961 0.8303900396409919 -0.04893358906054151 3.2252502834917456
-0.48627229857682863 0.4519405053738293 0.1967911944633002 -0.16322413085858525 0.797787930486846 0.6903596548682917 0.6431720864901327 2.173465370829029
-0.02964338349484515 -0.22579841420430824 -0.6223509061571859 0.36267023942773946 0.7517256706810594 -0.03291468890031283 -0.028205484658522895 -0.6838679299475225
-0.5350638722986989 -0.7692611927913782 0.6145618830270908 0.7159934931076404 0.8288018780365031 1.7175301831375658 0.8817573686158292 1.1461086207225668
-0.0816529531280289 -0.25043473058208426 0.4826495788532443 -0.4551253061870208
